data_process/quality_v2_bgr_10_out_tiny_112_45_128.onnx (onnx, 406114 bytes, 125 tensors)

quality.0.weight f4 [10, 100]
0.13180551 0.11309805 0.1585629 0.14478858 0.1692403 0.1396106 0.17408809 0.15237848
0.20080668 0.18502617 0.20881525 0.18489054 0.23534323 0.15336707 0.13249488 0.17037117
0.19574352 0.16602 0.1918988 0.18255295 0.21972208 0.16089006 0.194222 0.14401805
0.09995426 0.13355619 0.17461517 0.19140702 0.15777639 0.19665839 0.1277436 0.21461561
0.15290242 0.16327976 0.17854545 0.22682862 0.14029512 0.18290319 0.14480063 0.16229963
0.15013674 0.15891457 0.1547456 0.16021097 0.16074975 0.13547179 0.15146981 0.18663394
0.09019294 0.17484021 0.14786492 0.17633307 0.17959799 0.15184121 0.18841057 0.17912142
0.1815284 0.18914743 0.13058229 0.16593283 0.20548284 0.15363677 0.15017933 0.1358613
0.20394954 0.13334931 0.17957598 0.16745691 0.16367693 0.17204277 0.16532464 0.18100214
0.18256932 0.17814857 0.18840942 0.17722623 0.16315371 0.20668742 0.16071549 0.23014976
0.17802577 0.0629348 0.15540755 0.12127679 0.117782064 0.12689209 0.08353871 0.0840866
0.18842523 0.19767196 0.20388971 0.18230432 0.14957553 0.13320091 0.105048135 0.09911039
0.10398054 0.17776039 0.12493706 0.1301476 0.08960795 0.11693214 -0.17030904 0.35190853
-0.08395884 0.17793977 -0.06442045 0.13004524 0.39007097 0.27104405 0.10352465 0.25623253
0.14520356 0.12586358 0.19654141 0.097405784 -0.055527978 -0.063919015 -0.19187133 0.07826156
-0.057141207 -0.05164866 -0.09129212 0.13563561 0.12167979 0.2055134 0.09458523 -0.021635748
0.16656205 0.19560347 0.23361649 0.34344307 0.102087714 0.11463167 0.2992218 -0.20292185
0.0692858 -0.2997557 -0.347567 -0.2556459 0.41210428 0.19720611 0.03443821 0.11125441
-0.37550452 0.27898604 0.16938742 0.27918372 0.016283084 0.17208378 0.13361387 0.06884456
-0.17469595 -0.30610082 0.19651093 0.29771563 0.1833596 0.08269746 -0.02677217 -0.18039456
0.044052515 -0.1385877 -0.0895302 0.032413278 0.12921222 -0.28029746 -0.07929144 -0.038350724
0.2197921 -0.12670437 0.026219172 0.32074025 -0.029568478 -0.22133903 0.27613008 -0.26477754
-0.20389035 0.13865632 0.1930425 -0.17031793 0.27160087 0.30860263 -0.079565994 0.3252976
0.07757961 -0.10212898 0.16872244 0.29490143 0.2985934 0.272945 -0.14909089 -0.21543981
0.0063723475 -0.35274506 0.20454055 0.0603542 0.1609704 -0.05601833 -0.25277984 -0.32916558
0.07893726 -0.09257621 -0.23717637 0.23585154 -0.12449447 -0.209001 -0.09982469 -0.26237017
0.40536404 0.1202796 -0.05641043 0.25567082 0.2626021 0.122860365 0.33319786 0.090741
-0.19328952 -0.09150839 -0.25615072 -0.25754777 -0.11679419 0.044018224 -0.019903213 0.044124436
-0.36872447 -0.08609439 -0.0783588 0.0096869115 0.20368308 0.3530704 0.21836449 0.40330225
0.24442309 0.20404266 0.27731577 -0.11494095 0.1585835 -0.25554708 -0.35130763 -0.30614686
0.24997191 0.09326079 0.20731732 0.061794218 -0.31129745 0.13628404 -0.1855156 0.29646218
0.18673952 0.19744992 0.14055015 -0.05019174 -0.20323148 -0.02435764 0.24400918 0.2025219
00000000: 06f8 063e f39f e73d 505e 223e 7543 143e
00000010: 544d 2d3e 15f6 0e3e 2644 323e 1b09 1c3e
00000020: 44a0 4d3e 8077 3d3e aad3 553e f253 3d3e
00000030: d1fd 703e 420c 1d3e bdac 073e c875 2e3e
00000040: fd70 483e 2601 2a3e 1e81 443e 29ef 3a3e
00000050: d3fe 603e 5dc0 243e 22e2 463e 7879 133e
00000060: d2b4 cc3d f4c2 083e 52ce 323e 3400 443e
00000070: 2290 213e d160 493e 38cf 023e 32c4 5b3e
00000080: 7492 1c3e cf32 273e 9ed4 363e c345 683e
00000090: 86a9 0f3e f94a 3b3e 9e46 143e e031 263e
000000a0: 72bd 193e 80ba 223e a175 1e3e 580e 243e
000000b0: 959b 243e 1eb9 0a3e e71a 1b3e f81c 3f3e
000000c0: 13b7 b83d 5009 333e e769 173e a890 343e
000000d0: 89e8 373e 437c 1b3e b3ee 403e 9b6b 373e
000000e0: 95e2 393e ddaf 413e 5db7 053e 4cea 293e
000000f0: 186a 523e f552 1d3e 9cc8 193e 3a1f 0b3e
00000100: 26d8 503e b98c 083e c4e2 373e d379 2b3e
00000110: ed9a 273e fb2b 303e dd4a 293e a058 393e
00000120: 74f3 3a3e 946c 363e 66ee 403e cb7a 353e
00000130: c411 273e dea5 533e 9a92 243e 61ac 6b3e
00000140: 634c 363e f6e3 803d 2823 1f3e f75f f83d
00000150: b937 f13d 00f0 013e 5816 ab3d 9835 ac3d
00000160: 8bf2 403e 856a 4a3e 77c8 503e fcad 3a3e
00000170: 542a 193e d265 083e 7a23 d73d 63fa ca3d
00000180: c0f3 d43d d206 363e 00df ff3d 6a45 053e
00000190: 5f84 b73d 1e7a ef3d 7e65 2ebe 5b2d b43e
000001a0: 9df2 abbd d835 363e deee 83bd 942a 053e
000001b0: 62b7 c73e 49c6 8a3e bb04 d43d e930 833e
000001c0: 3eb0 143e 62e2 003e 2742 493e af7c c73d
000001d0: 4e71 63bd f9e7 82bd eb79 44be 9947 a03d
000001e0: e60c 6abd 8c8d 53bd 5df7 babd 10e4 0a3e
000001f0: 4133 f93d 1b72 523e e7b5 c13d 743d b1bc
00000200: 3e8f 2a3e 474c 483e 2939 6f3e c5d7 af3e
00000210: 5d13 d13d 02c4 ea3d 9a33 993e bfca 4fbe
00000220: b7e5 8d3d 9479 99be 4df4 b1be 05e4 82be
00000230: 55ff d23e 66f0 493e 150f 0d3d 5ad9 e33d
00000240: 2142 c0be 42d7 8e3e e573 2d3e 2bf1 8e3e
00000250: 1a64 853c bb36 303e 13d2 083e 60fe 8c3d
00000260: 7fe3 32be 3fb9 9cbe 293a 493e 2f6e 983e
00000270: 9ec2 3b3e 495d a93d 4f51 dbbc 5ab9 38be
00000280: 6970 343d efe9 0dbe 9c5b b7bd c9c3 043d
00000290: 3550 043e 2683 8fbe 8d63 a2bd a615 1dbd
000002a0: 2e11 613e cabe 01be 97c9 d63c 1138 a43e
000002b0: 9839 f2bc b3a6 62be ec60 8d3e ec90 87be
000002c0: a2c8 50be ecfb 0d3e efac 453e d367 2ebe
000002d0: 450f 8b3e 2a01 9e3e 7ff3 a2bd 688d a63e
000002e0: 0fe2 9e3d 0029 d1bd 93c5 2c3e 52fd 963e
000002f0: 3ce1 983e 72bf 8b3e 48ab 18be 419c 5cbe
00000300: 20cf d03b 009b b4be 1473 513e f735 773d
00000310: 6dd5 243e 7a73 65bd 5c6c 81be 6488 a8be
00000320: dca9 a13d 9998 bdbd 5dde 72be 1183 713e
00000330: f5f6 febd 5c04 56be e370 ccbd 6255 86be
00000340: e08b cf3e 2755 f63d a00e 67bd 49e7 823e
00000350: c873 863e 379e fb3d e998 aa3e 6bd6 b93d
00000360: b0ed 45be c068 bbbd 3026 83be 4ddd 83be
00000370: cb31 efbd 744c 343d 100c a3bc d3bb 343d
00000380: 74c9 bcbe 4152 b0bd 947a a0bd dab5 1e3c
00000390: 4c92 503e a5c5 b43e f19a 5f3e a27d ce3e
000003a0: 0c4a 7a3e 8ff0 503e 55fc 8d3e 2966 ebbd
000003b0: b763 223e 11d7 82be 98de b3be 48bf 9cbe
000003c0: a3f8 7f3e 83ff be3d fe4a 543e ef1b 7d3d
000003d0: 6162 9fbe 0b8e 0b3e cdf7 3dbe e4c9 973e
000003e0: a538 3f3e 5030 4a3e 61ec 0f3e db95 4dbd
000003f0: ea1b 50be ac89 c7bc 8bdd 793e e761 4f3e

quality.0.bias f4 [10]
0.3605204 -0.02053994 0.0076045096 0.069608934 -0.057115853 0.012514193 -0.10065452 -0.16582642
-0.16306217 -0.15572439
00000000: 2196 b83e 6043 a8bc 402f f93b 218f 8e3d
00000010: 50f2 69bd 5408 4d3c f523 cebd 67ce 29be
00000020: c5f9 26be 3776 1fbe

482 f4 [48, 3, 3, 3]
0.33813024 0.485348 -0.3107404 0.28076813 -0.020939404 -0.1099352 0.37818086 -0.48619497
0.23978491 -0.25309166 0.21923372 -0.25560626 0.36986914 -0.19904974 -0.2738151 -0.4840518
0.18227641 -0.6512229 0.4517573 0.13249037 0.41247863 0.32240006 0.2936518 -0.27152073
0.2854484 -0.33469188 -0.34882694 0.032896962 0.11812341 0.11044803 0.087974906 0.074326
0.028095728 0.06784936 -0.07634294 0.046320748 -0.012811251 0.16779292 0.0050351224 0.077004194
0.0054176464 -0.00023853395 0.09698645 0.09883701 -0.104508325 -0.100492746 -0.03403894 0.13408206
0.0346168 0.15796366 0.007492504 -0.008080134 -0.03570817 -0.08964736 -0.14982313 -0.12801298
0.021416232 -0.17506403 0.12733416 0.014663961 0.3016773 0.112777516 0.09489854 0.06463927
0.10658511 -0.19411358 -0.03582874 -0.20563406 0.1316803 -0.046378702 -0.008186416 -0.0614121
-0.17381173 -0.24882 -0.2383412 0.057795282 0.00255195 -0.27075982 0.06982026 -0.05397469
-0.26558095 -0.9939402 -0.75205094 -0.55032593 0.05664772 -0.95369047 0.32887715 0.27146146
-0.16078179 0.7072373 0.9241573 -0.8231013 -0.389091 -0.9013758 -0.05360291 -0.016505346
0.30549788 -0.050120078 -0.3466344 -0.28354183 1.1761202 0.6044435 0.45489067 0.8718199
-0.18562952 0.1990874 0.8019568 -0.2332862 0.21983418 0.20726167 0.35895917 0.22372437
-0.1806929 -0.2226616 -0.0840965 -0.11819317 0.10129892 -0.004315752 -0.4490851 -0.15213256
-0.31288722 -0.056755725 -0.37119076 0.051689032 -0.1626314 -0.012045437 0.3027961 -0.027344309
-0.0062719663 -0.05297736 -0.155333 0.14742988 0.13686216 -0.26864874 0.11173154 0.35332692
0.21835372 0.58296025 -0.38788903 -0.17093152 0.3120089 -0.55163324 0.05360776 -0.44612902
0.6192665 -0.06482624 0.5909123 0.1851959 -0.4804383 -0.1900176 -0.5445409 0.28971922
0.18936864 0.4724933 0.090650424 0.060594663 -0.01271003 -0.14560018 -0.21587542 -0.3129218
-0.011856625 -0.36781237 0.3183218 0.057593215 0.21575461 0.53691584 -0.12982282 -0.1968535
-0.2410947 0.47896373 0.4912408 -0.5928239 -0.15161596 0.46184728 -0.06440132 0.30475736
-0.57578933 -0.68169045 0.26407507 -0.59144235 -0.010368766 0.064245075 0.47642648 0.25218388
0.20318484 -0.060977455 0.07628765 -0.045373764 0.14174327 -0.062027473 -0.35603046 -0.01846345
-0.22639291 -0.22440782 -0.14534946 -0.03629278 -0.31525376 -0.48016772 0.31013325 -0.20872937
0.24904545 0.24235564 -0.41361597 -0.23231296 0.2589256 0.024451897 -0.123290606 -0.39107308
0.13654993 0.68017006 -0.25023195 -0.34229857 0.06407637 0.26555708 0.43185747 0.09505711
0.008232421 0.12893333 -0.05546886 -0.2617493 0.15670395 -0.08792951 -0.21604794 0.20883486
0.31006634 0.15872507 0.31485078 -0.2130072 0.19012637 0.320787 0.06931084 -0.09097238
0.18634148 0.31777698 0.018325223 -0.17758104 -0.33840662 0.21868832 0.10284854 -0.1626867
0.0366744 0.14772809 -0.12839465 -0.22229366 -0.10201214 -0.059215933 -0.24792773 -0.6378268
-0.19417925 -0.4547774 -0.12772025 -0.083702736 0.4490874 0.4184755 -0.11490749 0.18324064
00000000: 681f ad3e 887f f83e 5e19 9fbe d7c0 8f3e
00000010: 1d89 abbc b525 e1bd eca0 c13e 8cee f8be
00000020: 2d8a 753e 3b95 81be ce7e 603e d3de 82be
00000030: 7d5f bd3e b2d3 4bbe 7e31 8cbe a3d5 f7be
00000040: aba6 3a3e 8bb6 26bf bc4c e73e 8eab 073e
00000050: 6630 d33e 9f11 a53e 8759 963e c404 8bbe
00000060: 4b26 923e bc5c abbe 7299 b2be f7be 063d
00000070: b0ea f13d 9432 e23d 302c b43d 3b38 983d
00000080: 0329 e63c 9bf4 8a3d b059 9cbd d3ba 3d3d
00000090: 48e6 51bc e8d1 2b3e abfd a43b 60b4 9d3d
000000a0: 8386 b13b f81e 7ab9 d5a0 c63d 0f6b ca3d
000000b0: 7608 d6bd 24cf cdbd 6a6c 0bbd cf4c 093e
000000c0: 58ca 0d3d 3ac1 213e ae83 f53b 8a62 04bc
000000d0: bb42 12bd 0999 b7bd 3c6b 19be d615 03be
000000e0: 1871 af3c fc43 33be e363 023e 1c41 703c
000000f0: 7275 9a3e e6f7 e63d 2a5a c23d 9861 843d
00000100: 4b49 da3d b6c5 46be 28c1 12bd bc91 52be
00000110: 33d7 063e 98f7 3dbd 5120 06bc 418b 7bbd
00000120: b4fb 31be acca 7ebe b70f 74be bfba 6c3d
00000130: 9e3e 273b 08a1 8abe edfd 8e3d 9114 5dbd
00000140: 3afa 87be dd72 7ebf 6986 40bf 29e2 0cbf
00000150: 7107 683d 0f25 74bf 9662 a83e fffc 8a3e
00000160: fba3 24be 810d 353f 9395 6c3f c4b6 52bf
00000170: f036 c7be 90c0 66bf ba8e 5bbd 3836 87bc
00000180: 386a 9c3e b64a 4dbd 107a b1be 652c 91be
00000190: 1b8b 963f cfbc 1a3f 6ee7 e83e 972f 5f3f
000001a0: aa15 3ebe 91dd 4b3e 0a4d 4d3f 94e2 6ebe
000001b0: 361c 613e 673c 543e 7fc9 b73e 0018 653e
000001c0: 8f07 39be 6701 64be c93a acbd 430f f2bd
000001d0: cf75 cf3d 276b 8dbb 7bee e5be a3c8 1bbe
000001e0: c132 a0be b178 68bd b70c bebe e1b7 533d
000001f0: d988 26be 395a 45bc 1708 9b3e 2c01 e0bc
00000200: 1185 cdbb cafe 58bd 9d0f 1fbe dcf7 163e
00000210: 9825 0c3e 548c 89be 81d3 e43d 44e7 b43e
00000220: 1e98 5f3e e23c 153f 6499 c6be ac08 2fbe
00000230: a1bf 9f3e d637 0dbf d093 5b3d 066b e4be
00000240: 4088 1e3f 9fc3 84bd 0746 173f fea3 3d3e
00000250: 02fc f5be f993 42be 0867 0bbf 1456 943e
00000260: dae9 413e a4ea f13e eea6 b93d 1c32 783d
00000270: bb3d 50bc 3718 15be 720e 5dbe 4937 a0be
00000280: 4a42 42bc e751 bcbe 13fb a23e dde6 6b3d
00000290: c7ee 5c3e 5173 093f 46f0 04be f793 49be
000002a0: 87e1 76be bc3a f53e ea83 fb3e 4fc3 17bf
000002b0: 3741 1bbe 3f77 ec3e d7e4 83bd 2809 9c3e
000002c0: ee66 13bf 4483 2ebf d934 873e c468 17bf
000002d0: c2e1 29bc ec92 833d 2cee f33e 3f1e 813e
000002e0: b00f 503e 7fc3 79bd b33c 9c3d d7d9 39bd
000002f0: 2625 113e 8510 7ebd a049 b6be a940 97bc
00000300: 8bd3 67be 2acb 65be 7dd6 14be bda7 14bd
00000310: f168 a1be 8bd8 f5be c9c9 9e3e 27bd 55be
00000320: c505 7f3e 142c 783e 79c5 d3be 73e3 6dbe
00000330: e591 843e 584f c83c c97f fcbd bb3a c8be
00000340: bfd3 0b3e a01f 2e3f 671e 80be c241 afbe
00000350: 793a 833d 19f7 873e 6c1c dd3e 4dad c23d
00000360: 47e1 063c 1907 043e 5133 63bd 0104 86be
00000370: 0077 203e 6314 b4bd ac3b 5dbe ced8 553e
00000380: 04c1 9e3e d388 223e 1f34 a13e 8f1e 5abe
00000390: 7db0 423e 323e a43e d7f2 8d3d ba4f babd
000003a0: 4dd0 3e3e aab3 a23e c71e 963c ced7 35be
000003b0: a243 adbe d5ef 5f3e 41a2 d23d 5897 26be
000003c0: e537 163d 0846 173e e379 03be f3a0 63be
000003d0: beeb d0bd 688c 72bd c4e0 7dbe 9e48 23bf
000003e0: edd6 46be 95d8 e8be 19c9 02be 576c abbd
000003f0: c9ee e53e 6c42 d63e 9e54 ebbd 6fa3 3b3e

483 f4 [48]
0.30612692 0.17373213 -0.11105903 -0.1560762 -0.15393986 0.15612173 0.08773343 -0.31491876
0.29948172 -0.057189956 -0.13455753 -0.26340303 0.14869021 0.08640691 0.04299232 0.029749129
0.42086557 0.26497507 -0.24524862 0.38061905 0.09477081 0.3188975 -0.2351599 0.3324396
-0.22499342 0.23100805 0.23715268 -0.026950527 -0.24116248 0.21886002 0.3734494 -0.39299008
-0.22913174 -0.25884178 -0.22194439 -0.32288033 -0.13818139 -0.36882293 0.36214694 0.3157655
0.23555587 -0.2942215 0.4392246 -0.18663174 0.36626458 0.38273346 -0.38513416 -0.15321167
00000000: abbc 9c3e d6e6 313e eb72 e3bd 70d2 1fbe
00000010: 69a2 1dbe 60de 1f3e 96ad b33d 083d a1be
00000020: ab55 993e 0440 6abd 73c9 09be c3dc 86be
00000030: 3f42 183e 1bf6 b03d b718 303d 72b4 f33c
00000040: b17b d73e d0aa 873e 7422 7bbe 80e0 c23e
00000050: 3317 c23d 8846 a33e c2cd 70be 8635 aa3e
00000060: ad64 66be 608d 6c3e 27d8 723e 5ac7 dcbc
00000070: 4cf3 76be d71c 603e c234 bf3e ff35 c9be
00000080: 83a1 6abe e986 84be 6445 63be 9250 a5be
00000090: 6c7f 0dbe 5cd6 bcbe 536b b93e 04ac a13e
000000a0: 8f35 713e 33a4 96be 0ce2 e03e 641c 3fbe
000000b0: 0887 bb3e a4f5 c33e 4e30 c5be 85e3 1cbe

485 f4 [48, 2, 3, 3]
0.18487103 -0.06340393 0.37030962 -0.2542504 -0.22543491 -1.0644952 0.001916653 -0.1683932
0.44315362 -0.47527504 0.53383017 0.3887922 -0.0522455 0.717763 -0.45737386 -0.21367611
0.70112413 1.0206468 1.0920851 0.8881774 -0.17652115 0.44514978 -0.847483 -0.7443778
-0.041425545 -0.6210543 0.2343821 0.60904145 -0.0891847 -0.2996942 0.67694885 -0.71893835
0.25251144 0.03511293 -0.8100294 0.18469982 0.5109482 -0.5886402 0.6797835 -0.5906905
0.11089089 0.6463394 -0.39020845 -0.40922397 0.81069976 -0.18925638 0.02942069 -0.49148715
0.96033883 0.091273986 -1.203161 0.5125572 0.6895112 0.36784792 0.60335964 -0.7481388
0.6542359 0.7826382 -0.32036945 -0.970806 0.14284004 -0.49596742 0.14609748 -0.8885136
-0.79158485 0.6111098 -0.67033315 -0.68940634 0.9456959 -0.6120914 0.7608026 0.2594629
0.26983696 -0.7430409 -0.21986847 -0.66761434 -0.024440665 -0.6907303 0.43162915 0.59897506
0.5995704 -0.13680598 -0.4078038 -0.08837253 -0.9824809 -0.12557349 0.58285356 -0.12132744
0.8558933 -0.03318903 -0.47530383 -0.21945667 0.21923953 0.07834151 0.08593036 0.3775292
0.33235264 -0.45866096 -0.20796847 0.10222072 -0.10034582 0.3858802 -0.29417259 -0.57053804
-0.37618908 -0.19119236 -0.27930418 -0.6418594 0.2305628 0.091635205 0.08673806 -0.053199492
0.30527794 0.08683499 -0.0024590818 0.02624985 0.47157294 -0.34414664 0.3001618 -0.10303113
-0.1212303 -0.56417316 -0.18916999 -0.15842599 0.35335356 0.015399081 0.3223596 -0.94594437
-0.83490145 -0.83536386 1.0138695 0.88228285 -0.8299677 0.5251602 -1.0988811 0.31012726
-0.17175454 1.0763602 -0.66580784 0.2028695 -0.076388285 0.06618248 -1.364236 -0.33216968
-1.0676337 1.075456 1.0399274 -0.9797121 0.8167535 0.8216099 -0.47169107 -1.1213659
0.22325553 0.5559229 0.98864853 -0.8084982 0.067296624 -0.57677037 0.08616769 -0.43984115
0.18656942 -0.07360141 -0.45093584 0.48121908 -0.38887006 -0.45503098 -0.3189704 0.07934751
-0.49482664 0.8413327 -0.35251987 -1.0666678 -0.36336178 -0.022200536 0.10453733 -0.35639694
1.4096333 -0.58407235 0.43775758 -0.026514668 0.49697235 -1.0331829 -0.87888974 1.250743
0.9460054 0.5633744 -1.0750794 0.40620202 -0.15445979 -0.49783304 0.033052906 -0.43085727
0.92104954 1.7498583 0.14091639 0.43883044 0.61863935 0.04252858 1.3433867 -0.7464218
0.010351721 -0.21933685 0.5133766 -1.267743 -0.57718843 1.502291 -1.4843836 -0.7421975
-1.5875298 0.15885724 0.18153028 1.2104456 0.160567 -1.3718657 0.3514753 -1.0155901
0.6594572 -0.16106598 0.2642113 0.31609803 -0.58896667 0.026946964 0.12978211 0.12974748
-0.33827394 -0.5536068 -0.064368434 0.8173222 -0.18952624 -0.6228057 -0.2046852 -0.7250179
-0.20868237 -0.4263141 -0.15849638 0.06801142 -0.2964159 0.35519782 0.24152142 0.47728065
-0.09194449 -0.4976478 -0.5417929 -0.5105806 -0.0699511 -0.020458704 -0.16882506 -0.74791443
-0.5836333 -0.27018917 0.5625475 -0.17568485 0.0086517725 -0.5810069 0.067594826 0.80640453
00000000: d54e 3d3e ebd9 81bd 3999 bd3e 1c2d 82be
00000010: 69d8 66be 6141 88bf 3438 fb3a 446f 2cbe
00000020: 08e5 e23e 4057 f3be 18a9 083f c50f c73e
00000030: 61ff 55bd 51bf 373f e82c eabe e9cd 5abe
00000040: df7c 333f 8ea4 823f 72c9 8b3f 985f 633f
00000050: f6c1 34be acea e33e a5f4 58bf 8b8f 3ebf
00000060: d5ad 29bd 6afd 1ebf dc01 703e 24ea 1b3f
00000070: 78a6 b6bd 8571 99be 854c 2d3f 580c 38bf
00000080: 2e49 813e 93d2 0f3d 165e 4fbf f321 3d3e
00000090: 80cd 023f 20b1 16bf 4b06 2e3f 7e37 17bf
000000a0: c31a e33d 8076 253f 67c9 c7be ce85 d1be
000000b0: 058a 4f3f 6dcc 41be a903 f13c 34a4 fbbe
000000c0: c4d8 753f dbed ba3d 2e01 9abf f336 033f
000000d0: ce83 303f 9056 bc3e c775 1a3f 0686 3fbf
000000e0: 017c 273f fa5a 483f 7707 a4be be86 78bf
000000f0: a944 123e 71ef fdbe 949a 153e a175 63bf
00000100: 4ea5 4abf b171 1c3f f49a 2bbf ef7c 30bf
00000110: 2019 723f 06b2 1cbf f6c3 423f 52d8 843e
00000120: 1228 8a3e ee37 3ebf 3325 61be c6e8 2abf
00000130: ca37 c8bc b3d3 30bf 7ffe dc3e 6e56 193f
00000140: 727d 193f de16 0cbe a9cb d0be a8fc b4bd
00000150: de83 7bbf 5696 00be e435 153f 857a f8bd
00000160: d31b 5b3f 38f1 07bd 065b f3be 40b9 60be
00000170: 5480 603e 8371 a03d 42fc af3d 824b c13e
00000180: 202a aa3e 9cd5 eabe b0f5 54be 1959 d13d
00000190: 1c82 cdbd 1792 c53e ca9d 96be c80e 12bf
000001a0: db9b c0be eec7 43be f500 8fbe e650 24bf
000001b0: a818 6c3e 3dab bb3d b9a3 b13d b6e7 59bd
000001c0: 644d 9c3e 8bd6 b13d 8c28 21bb ed09 d73c
000001d0: 0272 f13e fd33 b0be cfae 993e fc01 d3bd
000001e0: 9747 f8bd a76d 10bf c7b5 41be 6c3a 22be
000001f0: c2ea b43e 6d4c 7c3c 510c a53e 6929 72bf
00000200: 1abc 55bf 68da 55bf 7ac6 813f 4add 613f
00000210: c378 54bf e670 063f 23a8 8cbf 00c9 9e3e
00000220: 6ce0 2fbe 2cc6 893f 6272 2abf 06bd 4f3e
00000230: 7671 9cbd ae8a 873d 499f aebf 2512 aabe
00000240: 39a8 88bf 8ba8 893f 571c 853f 6ace 7abf
00000250: c216 513f 0755 523f 7e81 f1be eb88 8fbf
00000260: 199d 643e f750 0e3f 1218 7d3f bdf9 4ebf
00000270: d0d2 893d 39a7 13bf b078 b03d dc32 e1be
00000280: 0e0c 3f3e 56bc 96bd 10e1 e6be 5962 f63e
00000290: fa19 c7be d2f9 e8be 1750 a3be f380 a23d
000002a0: eb59 fdbe 9461 573f 7c7d b4be 9288 88bf
000002b0: 8e0a babe e6dd b5bc ab17 d63d a979 b6be
000002c0: dd6e b43f c485 15bf c321 e03e 4a35 d9bc
000002d0: 2973 fe3e 563f 84bf ebfe 60bf 5918 a03f
000002e0: 692d 723f 4e39 103f 349c 89bf b6f9 cf3e
000002f0: b52a 1ebe f9e3 febe 7c62 073d 5399 dcbe
00000300: e7c9 6b3f 5bfb df3f 634c 103e 62ae e03e
00000310: 265f 1e3f 7332 2e3d 18f4 ab3f 8015 3fbf
00000320: 449a 293c d799 60be a66c 033f 6745 a2bf
00000330: 9fc2 13bf 124b c03f 4800 bebf a800 3ebf
00000340: 2d34 cbbf 79ab 223e 13e3 393e e2ef 9a3f
00000350: ad6b 243e 4c99 afbf 92f4 b33e dbfe 81bf
00000360: 30d2 283f 7bee 24be b446 873e 9ad7 a13e
00000370: 85c6 16bf e1bf dc3c 9ae5 043e 86dc 043e
00000380: 3e32 adbe 2db9 0dbf 99d3 83bd 073c 513f
00000390: 2b13 42be 3270 1fbf ff98 51be c69a 39bf
000003a0: d5b0 55be d745 dabe e04c 22be 9249 8b3d
000003b0: d3c3 97be 7ddc b53e 6451 773e 215e f43e
000003c0: 654d bcbd b1cb febe f1b2 0abf 69b5 02bf
000003d0: 8642 8fbd 0399 a7bc 7ae0 2cbe 5277 3fbf
000003e0: fe68 15bf 3c56 8abe 1d03 103f bbe6 33be
000003f0: 2ac0 0d3c debc 14bf 286f 8a3d 8770 4e3f

486 f4 [48]
-0.14920308 0.11014786 -0.42221904 0.38503754 0.31698543 0.44191462 -0.08088467 0.422529
0.30637425 0.20753255 -0.43404776 0.3304621 0.077502534 0.15990098 -0.1937744 0.0605894
-0.46748108 -0.10904522 -0.037318014 -0.5052242 -0.35569048 0.101458564 0.109428 0.43974793
-0.13436826 0.4785577 0.33618826 0.045096736 0.06667762 -0.073837265 -0.17111227 0.29146805
0.117063954 -0.41019768 0.18615814 0.27659532 -0.21906392 -0.30136323 0.00898695 0.018120766
0.23963395 0.07373144 0.2625039 -0.068072826 0.284925 0.13807265 0.16971052 0.18581182
00000000: b1c8 18be 3495 e13d 182d d8be a423 c53e
00000010: ea4b a23e a242 e23e dda6 a5bd b955 d83e
00000020: 16dd 9c3e 6a83 543e 823b debe 5432 a93e
00000030: a6b9 9e3d 15bd 233e cc6c 46be 972c 783d
00000040: ae59 efbe 1a53 dfbd c6da 18bd 6056 01bf
00000050: 101d b6be 82c9 cf3d ca1b e03d a426 e13e
00000060: d597 09be 8405 f53e de20 ac3e 5bb7 383d
00000070: 478e 883d fe37 97bd 0e38 2fbe 4d3b 953e
00000080: 3abf ef3d 6e05 d2be 3da0 3e3e e79d 8d3e
00000090: 4b52 60be 484c 9abe 003e 133c 0072 943c
000000a0: 9a62 753e 8200 973d e966 863e c469 8bbd
000000b0: b1e1 913e eb62 0d3e 98c8 2d3e 7445 3e3e

488 f4 [32, 48, 1, 1]
-0.08079328 -0.046963166 0.01995036 0.009002449 0.054394014 -0.06405435 0.036770448 -0.07618807
0.04515105 0.020277152 0.026609112 0.029739207 0.0001676718 -0.02861619 -0.07062898 -0.04287394
0.026684513 0.018047815 -0.03208932 -0.0137752015 0.030795434 0.057378706 0.056912813 -0.017119521
-0.10949457 0.10391387 0.018548144 -0.025571307 0.052302483 -0.10708473 -0.022221316 -0.04528946
-0.08132943 0.09067257 0.05665571 0.107153565 0.039786454 -0.021796996 -0.012545043 -0.04701655
-0.23904513 0.067535065 -0.004131905 -0.008858328 -0.06201 -0.10926058 -0.1017908 -0.030300321
-0.0027863353 -0.0077358913 -0.06988784 0.06823165 -0.033235855 0.021079324 0.02729256 0.022073012
0.00088787515 0.04174281 -0.04898207 0.021082211 0.014810501 0.028756931 -0.012680789 0.052458208
-0.034132328 0.025914835 -0.039991334 -0.016868427 0.014883257 -0.039789107 0.034784704 0.03128179
0.021334836 -0.0033628992 -0.054125447 0.0036271226 -0.021613423 -0.029914374 -0.04057093 -0.013231233
-0.047983095 -0.031315874 -0.07077563 0.0074079065 -0.013314304 0.025860177 0.033237785 -0.051363114
-0.042482603 0.029090598 -0.014002192 0.03735302 -0.037179705 -0.007510988 -0.034914672 0.032866463
0.004712391 -0.02521732 0.011439941 0.005060825 0.0082734 -0.010548132 0.0234627 -0.002830062
0.020173933 0.040706147 -0.010402966 0.0051394547 -0.0062005646 0.033415377 -0.016712211 0.08948884
-0.004341954 -0.0016327149 -0.016446486 0.04909037 -0.03319711 0.016852137 0.0059437184 0.002470875
0.008458428 -0.0034959307 0.024380025 0.037660487 -0.008281196 0.029086223 -0.011318816 -0.030816322
-0.021111565 0.045201633 0.014272753 0.003702523 0.0015053514 0.017107302 -0.013017158 0.09103244
-0.036235042 -0.029538041 0.013172546 0.018602503 -0.03606163 0.0074882675 0.06529189 0.029825324
0.029524202 0.07674084 0.057566293 0.05520576 -0.053213477 0.039046492 -0.023397371 -0.07984908
0.08062927 0.0019890254 0.071961656 -0.046237342 0.06804665 0.09747659 0.02885706 -0.0020400228
0.10373505 -0.010253552 0.0014901855 0.13732977 0.04976388 0.014674995 -0.036019128 -0.055810895
0.017544534 0.011081182 -0.024072537 0.032308783 0.059655707 0.04935296 0.03495768 0.0032499284
0.056904465 0.059363462 0.06314919 0.052636746 0.043194458 -0.013643759 -0.015515634 -0.016421976
-0.010722735 0.073023885 0.0024461488 0.114339225 0.034605715 -0.040862255 0.045999 -0.004689205
0.022127269 0.02644774 -0.024244756 0.014740136 -0.030860474 0.0011815215 0.028668057 -0.016511014
0.07529357 -0.0028968907 -0.014343603 0.039194915 0.023917709 -0.0024713723 0.002273447 -0.047014594
-0.042719193 -0.019493125 -0.035522092 0.009178431 -0.006002421 0.056481794 0.02686017 -0.0039005652
0.0017226563 -0.029894928 0.023577519 0.0032704512 -0.010478283 0.022221051 0.017850976 -0.0070029753
0.104645126 -0.020989945 -0.0688536 0.106172666 0.02780985 -0.0033474164 -0.0015673743 -0.027761139
-0.03488353 -0.013209251 -0.021759536 -0.0035266285 0.03496353 0.04800276 -0.007082454 -0.010094396
0.023786305 0.0151379015 0.008550819 0.032015428 -0.0427846 0.044087276 0.05346209 -0.0425926
-0.031619746 0.017780289 0.03139398 0.023452517 -0.005440568 0.02002365 0.04094421 0.023104357
00000000: f276 a5bd 735c 40bd f06e a33c 027f 133c
00000010: 42cc 5e3d ed2e 83bd 9c9c 163d 7e08 9cbd
00000020: 4ff0 383d 451c a63c 5afb d93c a39f f33c
00000030: 0ed1 2f39 806c eabc eda5 90bd 969c 2fbd
00000040: 7b99 da3c 03d9 933c 1770 03bd 62b1 61bc
00000050: b546 fc3c ef05 6b3d 691d 693d 3d3e 8cbc
00000060: b03e e0bd ccd0 d43d 47f2 973c eb7a d1bc
00000070: 213b 563d 3d4f dbbd 7a09 b6bc 7181 39bd
00000080: 0b90 a6bd 8ab2 b93d d10f 683d 5473 db3d
00000090: 1ff7 223d 9d8f b2bc b989 4dbc 6d94 40bd
000000a0: 3fc8 74be d34f 8a3d ee64 87bb 8522 11bc
000000b0: 33fe 7dbd 03c4 dfbd b277 d0bd 6138 f8bc
000000c0: f39a 36bb 5c7d fdbb 5b21 8fbd 09bd 8b3d
000000d0: 5222 08bd 8cae ac3c a694 df3c 76d2 b43c
000000e0: 4bc0 683a 82fa 2a3d 6ca1 48bd 9ab4 ac3c
000000f0: bea7 723c a893 eb3c 16c3 4fbc 6bde 563d
00000100: 57ce 0bbd 594b d43c f4cd 23bd a82f 8abc
00000110: e8d8 733c e7f9 22bd 687a 0e3d 5621 003d
00000120: 65c6 ae3c 1664 5cbb a5b2 5dbd 05b5 6d3b
00000130: a20e b1bc fd0e f5bc b42d 26bd d0c7 58bc
00000140: ec89 44bd 1345 00bd d0f2 90bd 06be f23b
00000150: 3d24 5abc b9d8 d33c 5824 083d 2162 52bd
00000160: 3d02 2ebd 684f ee3c 7369 65bc 7bff 183d
00000170: bf49 18bd bc1e f6bb b002 0fbd fc9e 063d
00000180: 676a 9a3b 8e94 cebc 976e 3b3c 47d5 a53b
00000190: 288d 073c 12d2 2cbc d934 c03c 9078 39bb
000001a0: ce43 a53c 7dbb 263d 3471 2abc df68 a83b
000001b0: 1b2e cbbb 90de 083d 0ce8 88bc ed45 b73d
000001c0: f346 8ebb d200 d6ba c8ba 86bc fc12 493d
000001d0: b1f9 07bd 7e0d 8a3c 86c3 c23b 67ee 213b
000001e0: 3895 0a3c fc1b 65bb 9eb8 c73c e241 1a3d
000001f0: daad 07bc 3b46 ee3c 8e72 39bc 8372 fcbc
00000200: 29f2 acbc 5925 393d 44d8 693c 07a6 723b
00000210: 364f c53a 9d24 8c3c eb45 55bc 376f ba3d
00000220: 326b 14bd c3f9 f1bc aad1 573c 4764 983c
00000230: 5cb5 13bd 2460 f53b c1b7 853d 3d54 f43c
00000240: bddc f13c 4d2a 9d3d a2ca 6b3d 6f1f 623d
00000250: 60f6 59bd 37ef 1f3d d8ab bfbc ea87 a3bd
00000260: f520 a53d 4f5a 023b a260 933d 5e63 3dbd
00000270: 0b5c 8b3d cea1 c73d a465 ec3c e7b1 05bb
00000280: 0b73 d43d 84fe 27bc 5452 c33a 2da0 0c3e
00000290: 36d5 4b3d 646f 703c cb88 13bd f799 64bd
000002a0: 8eb9 8f3c d98d 353c c533 c5bc 3756 043d
000002b0: 8b59 743d 5426 4a3d c92f 0f3d c0fc 543b
000002c0: a814 693d 1a27 733d 5d54 813d a199 573d
000002d0: acec 303d 138a 5fbc 4935 7ebc 6187 86bc
000002e0: 69ae 2fbc 8c8d 953d 914f 203b af2a ea3d
000002f0: b9be 0d3d 2e5f 27bd 7369 3c3d e7a7 99bb
00000300: 3f44 b53c eea8 d83c f09c c6bc 9d80 713c
00000310: 1bcf fcbc 48dd 9a3a 46d9 ea3c 1b42 87bc
00000320: 8433 9a3d c3d9 3dbb 6e01 6bbc d98a 203d
00000330: 12ef c33c bff6 21bb 1dfe 143b 6092 40bd
00000340: 52fa 2ebd 0cb0 9fbc 9d7f 11bd 2161 163c
00000350: f5af c4bb 7459 673d dc09 dc3c a0a0 7fbb
00000360: c1ca e13a 35e6 f4bc a425 c13c 1155 563b
00000370: 1bad 2bbc ec08 b63c 363c 923c 3779 e5bb
00000380: 2f50 d63d 1bf3 abbc 1e03 8dbd 0e71 d93d
00000390: 7cd1 e33c 5460 5bbb 5b70 cdba 546b e3bc
000003a0: 08e2 0ebd 9d6b 58bc 0e41 b2bc 021f 67bb
000003b0: eb35 0f3d 8b9e 443d ee13 e8bb f762 25bc
000003c0: 7fdb c23c f604 783c bc18 0c3c 9c22 033d
000003d0: e83e 2fbd dc94 343d 11fb 5a3d 9475 2ebd
000003e0: b583 01bd f8a7 913c f996 003d 7e1f c03c
000003f0: cb46 b2bb a308 a43c 1eb5 273d 5945 bd3c

489 f4 [32]
0.2748774 0.24172038 -0.0105340555 -0.41040835 -0.052374266 -0.050368853 -0.056247406 0.06166769
0.0660647 0.30687255 0.04907423 -0.032794382 0.057705566 0.13551107 -0.0007629643 0.049762513
0.01104917 0.084192514 0.13822201 0.13051695 0.004820779 0.3229422 0.05689984 0.036111426
0.23463066 0.1359648 0.121189326 0.12943354 -0.038383603 0.05784298 0.0045812093 0.22727926
00000000: bbbc 8c3e 8c85 773e 0897 2cbc 0b21 d2be
00000010: 6686 56bd 924f 4ebd ae63 66bd 4297 7c3d
00000020: ee4c 873d 661e 9d3e 0f02 493d 6753 06bd
00000030: ac5c 6c3d 6ac3 0a3e ab01 48ba c7d3 4b3d
00000040: 9407 353c 206d ac3d 128a 0d3e 3ca6 053e
00000050: a0f7 9d3b ae58 a53e ce0f 693d 93e9 133d
00000060: 0543 703e 5b3a 0b3e 1c32 f83d 3a8a 043e
00000070: 2038 1dbd c3ec 6c3d f81d 963b e5bb 683e

491 f4 [32, 1, 3, 3]
2.0767279 0.6357905 0.48185194 0.35682628 -1.1643578 0.658635 -1.7001531 -1.8229728
0.15455377 1.6431319 0.84962255 -0.50499403 1.9980476 2.6706336 -0.2833246 -0.9679785
1.2102354 0.82751554 -0.8341355 -1.0411042 0.9389921 -0.29183745 -2.6987815 -1.7026131
0.40792736 -1.5313843 -1.812225 -1.6989928 1.4689441 1.5884194 0.62687194 0.62339306
1.539915 1.3663971 0.010218717 1.0574386 -1.9710917 -0.6587589 -0.69058585 -0.30530173
-0.49298328 -0.6882747 -1.2334193 -1.4248437 -0.80334926 6.414212 3.2145987 3.4415288
4.0071354 -2.3115525 -3.3926294 -4.2892857 -4.594121 -3.8757157 0.18856315 1.5399014
0.680364 -1.3837996 -0.54734206 -0.5151248 -1.8468746 -1.8636676 -2.625186 1.5044194
-0.8358509 -0.769523 0.48208633 -1.0922441 -2.2893283 0.49429998 0.4209114 -1.6239266
2.6828716 -3.797189 2.6616738 2.1989317 2.096928 -1.1277903 -4.928681 3.624592
-2.9631925 -1.524283 -0.59453475 -0.3522876 -1.0280666 -2.737624 0.5568499 2.1433628
2.684177 1.0887648 -0.88745797 -1.5777404 -0.1974328 -0.19642688 -1.1671711 -1.1179614
0.5430346 0.10802467 0.009994275 0.26328793 2.8219404 -2.6387253 -3.8633742 -3.4148939
4.1865406 -4.688914 3.7500808 1.5351822 -0.6300009 -1.225913 -1.7230726 1.4501274
0.1582027 -0.45526254 1.8407514 1.8849553 -1.2141973 -2.3681104 -0.1438443 -0.68912584
0.37156653 -0.36389866 0.3372278 1.8303659 2.3439238 0.67104053 -7.920535 -5.0552206
8.15731 -3.1573234 1.3866117 0.17446028 0.7017508 1.0064046 5.9883776 0.08446716
2.7289674 3.3425467 0.84745365 3.6267178 2.02507 -1.4459242 0.4546373 -0.14057274
-0.7409814 -1.0084062 -0.72329307 -1.0608006 -1.5915779 -0.27376196 -0.98121166 -0.9523936
0.2981352 -3.683481 2.074518 3.1510525 -0.12573293 2.369333 2.7905474 1.8681325
1.8908364 1.3224591 -1.4843554 1.4102226 0.057310402 4.8378954 -3.5158942 -1.1271926
-4.852685 6.200451 -2.1616173 2.812626 2.2181406 -0.09875001 0.67194927 -2.503166
-2.865479 -1.2359403 0.7618489 -0.12444487 1.173904 -0.9343892 -0.4358032 -0.7003576
-1.7982596 -0.7541764 -0.5718902 -0.5395701 -1.1964976 1.0594822 -1.4844029 1.1926984
1.4195068 -3.0016823 -1.9836216 4.624901 0.42386228 -0.5165741 -1.7656138 2.980244
0.36264256 0.45543852 -1.2978735 -4.3038735 -0.65736234 2.4031744 1.7726451 5.3461194
2.105071 1.6232201 -6.5522017 4.0906897 2.933077 -4.138567 -4.1703496 -0.47277406
1.2641494 0.8044433 -0.17742284 1.4889352 1.5654734 0.33827898 0.959964 0.5313314
-0.5386102 0.22747816 1.0390252 -1.4564703 1.2780194 0.70530516 1.7809546 1.4146907
1.4191853 0.13386619 -1.0670756 1.207974 -1.7101161 0.8236891 1.0725707 -0.9818736
1.4739529 1.5067621 -2.3862016 -0.3767951 -2.8037617 1.7007177 2.0470843 -1.9821838
-3.23285 4.263419 -3.6919205 4.159357 2.2370715 -6.6433864 -2.7262533 10.471415
00000000: 1ce9 0440 2bc3 223f 4cb5 f63e efb1 b63e
00000010: ad09 95bf 4e9c 283f 9e9e d9bf 2c57 e9bf
00000020: 5843 1e3e 2552 d23f dd80 593f 4a47 01bf
00000030: 06c0 ff3f a9eb 2a40 ec0f 91be 70cd 77bf
00000040: fee8 9a3f 0fd8 533f e789 55bf e742 85bf
00000050: c961 703f b86b 95be d6b8 2cc0 3aef d9bf
00000060: dbdb d03e 6704 c4bf fdf6 e7bf 9978 d9bf
00000070: 5c06 bc3f 5451 cb3f ae7a 203f b096 1f3f
00000080: ef1b c53f 1ae6 ae3f 686c 273c 265a 873f
00000090: bc4c fcbf 6ca4 28bf 3cca 30bf 8250 9cbe
000000a0: 4e68 fcbe c532 30bf afe0 9dbf 4761 b6bf
000000b0: 4ca8 4dbf 3a41 cd40 fcbb 4d40 0242 5c40
000000c0: 743a 8040 7af0 13c0 d720 59c0 d441 89c0
000000d0: 0a03 93c0 ba0b 78c0 b316 413e 7d1b c53f
000000e0: 562c 2e3f 5820 b1bf 9c1e 0cbf 38df 03bf
000000f0: 6366 ecbf a98c eebf 0c03 28c0 d190 c03f
00000100: 53fa 55bf 76ff 44bf 05d4 f63e a8ce 8bbf
00000110: 5b84 12c0 e314 fd3e b381 d73e d4dc cfbf
00000120: 2bb4 2b40 2505 73c0 dd58 2a40 4cbb 0c40
00000130: 1134 0640 6f5b 90bf c1b7 9dc0 51f9 6740
00000140: f2a4 3dc0 b51b c3bf 6e33 18bf 0a5f b4be
00000150: b097 83bf 3b35 2fc0 b78d 0e3f db2c 0940
00000160: 8ec9 2b40 a55c 8b3f 7230 63bf 66f3 c9bf
00000170: d32b 4abe 2124 49be dd65 95bf 5c19 8fbf
00000180: 5104 0b3f 0a3c dd3d 07bf 233c adcd 863e
00000190: ac9a 3440 e0e0 28c0 8641 77c0 9f8d 5ac0
000001a0: 24f8 8540 950b 96c0 5301 7040 da80 c43f
000001b0: bd47 21bf b8ea 9cbf a58d dcbf c69d b93f
000001c0: e3ff 213e 2c18 e9be be9d eb3f 3746 f13f
000001d0: d16a 9bbf 1f8f 17c0 ec4b 13be 8d6a 30bf
000001e0: f83d be3e ed50 babe 1fa9 ac3e 6e49 ea3f
000001f0: d902 1640 50c9 2b3f 0675 fdc0 5ec4 a1c0
00000200: 5784 0241 9611 4ac0 7e7c b13f b7a5 323e
00000210: f1a5 333f ded1 803f caa0 bf40 1efd ac3d
00000220: 67a7 2e40 49ec 5540 b9f2 583f 251c 6840
00000230: bf9a 0140 0b14 b9bf 38c6 e83e 4df2 0fbe
00000240: f5b0 3dbf 7413 81bf bc29 39bf 50c8 87bf
00000250: d3b8 cbbf 872a 8cbe b030 7bbf 11d0 73bf
00000260: 2da5 983e 27be 6bc0 e7c4 0440 d8aa 4940
00000270: 22c0 00be 27a3 1740 5498 3240 f71e ef3f
00000280: ed06 f23f 5746 a93f 5cff bdbf 2d82 b43f
00000290: 50be 6a3d 0ad0 9a40 6904 61c0 d947 90bf
000002a0: 3249 9bc0 186a c640 f057 0ac0 1002 3440
000002b0: 04f6 0d40 723d cabd de04 2c3f df33 20c0
000002c0: 0264 37c0 4b33 9ebf 8808 433f f4dc febd
000002d0: 7c42 963f 2134 6fbf 9921 dfbe a34a 33bf
000002e0: 5f2d e6bf b411 41bf 6567 12bf 4421 0abf
000002f0: d526 99bf 1d9d 873f ea00 bebf 57aa 983f
00000300: 66b2 b53f 901b 40c0 50e7 fdbf 30ff 9340
00000310: 7a04 d93e 333e 04bf a2ff e1bf 51bc 3e40
00000320: 49ac b93e 3d2f e93e b820 a6bf 55b9 89c0
00000330: e648 28bf 9ccd 1940 09e6 e23f 6913 ab40
00000340: 7cb9 0640 adc5 cf3f a3ab d1c0 eee6 8240
00000350: 89b7 3b40 246f 84c0 8173 85c0 710f f2be
00000360: a6cf a13f ffef 4d3f 55ae 35be 6e95 be3f
00000370: 6f61 c83f e732 ad3e 33c0 753f 5605 083f
00000380: 5ce2 09bf 09f0 683e c7fe 843f 9e6d babf
00000390: 2496 a33f e18e 343f 52f6 e33f 9614 b53f
000003a0: dda7 b53f 3814 093e ef95 88bf e49e 9a3f
000003b0: 16e5 dabf 4add 523f ff49 893f 115c 7bbf
000003c0: 7daa bc3f 95dd c03f 87b7 18c0 4aeb c0be
000003d0: d570 33c0 1eb1 d93f 6e03 0340 33b8 fdbf
000003e0: 04e7 4ec0 ee6d 8840 6d48 6cc0 7419 8540
000003f0: 2e2c 0f40 9f96 d4c0 ef7a 2ec0 ea8a 2741

492 f4 [32]
0.23255883 -1.2922832 0.78241616 -0.3718793 0.6175091 0.22273858 0.38947946 0.54618514
-0.09068998 -0.02447134 0.6103972 -0.04352653 0.080731966 -0.14200707 0.1235832 -0.6190656
0.43643767 -1.1441848 -0.04287591 0.076497704 0.12255757 -0.2419484 -0.006154299 0.05115896
-0.70537466 -0.77533245 0.17502414 -0.045283273 0.082058094 -0.27148458 -0.42003572 -0.9704482
00000000: e723 6e3e 8969 a5bf 6d4c 483f f766 bebe
00000010: 1415 1e3f 9515 643e da69 c73e cad2 0b3f
00000020: abbb b9bd 1f78 c8bc fe42 1c3f e048 32bd
00000030: cd56 a53d 4d6a 11be 3019 fd3d 157b 1ebf
00000040: c274 df3e a674 92bf a69e 2fbd d4aa 9c3d
00000050: 77ff fa3d 52c1 77be 00aa c9bb 0f8c 513d
00000060: 6f93 34bf 307c 46bf 8739 333e f47a 39bd
00000070: 130e a83d 0700 8bbe ec0e d7be 4b6f 78bf

494 f4 [48, 32, 1, 1]
0.015823657 -0.0004179341 0.041163933 0.37450695 -0.2763801 0.0021099204 0.26572174 -0.06145828
-0.1269769 0.018110577 -0.35408416 0.079482354 0.24420933 0.23957631 -0.046645895 0.18291928
0.35364425 -0.18470125 -0.09978649 -0.25552046 -0.47005925 -0.062326916 -0.15589334 -0.34024763
0.4920549 -0.25283977 0.1809082 0.002415256 -0.19341826 -0.29513443 0.015762553 0.22163607
-0.2728428 -0.20816235 -0.12475615 -0.002896034 -0.49240938 0.023900371 0.100190125 -0.2253415
0.3248127 0.08707004 -0.0401065 0.106641866 0.26862124 0.14449339 -0.03820259 0.15316325
-0.51319575 -0.14306739 0.35333624 -0.0031073221 -0.073351145 0.25842413 0.31726688 -0.0905287
0.24294546 0.3217077 0.05276489 0.22273846 -0.081124894 -0.018636188 0.09819791 -0.1934503
0.06554676 -0.22213489 -0.053095173 -0.114813134 0.17978533 0.04346824 0.18905582 -0.15329237
-0.022513125 0.23848185 -0.31146833 0.14159852 -0.30293787 -0.37057495 -0.1684769 -0.034570448
-0.11098896 0.09367775 0.0059498157 0.18524654 0.026841516 0.039553795 0.22766891 0.30987194
0.024663301 -0.22704752 -0.07983895 -0.41376454 -0.19539852 -0.15832378 -0.33444864 0.2394559
0.38513058 -0.32148102 -0.48864824 0.2375626 -0.42188525 0.17621133 -0.21313208 -0.15084793
-0.0261075 0.20576145 -0.46150786 0.092348054 -0.013854821 0.0014309337 -0.08578692 0.086860284
-0.13334565 -0.13813879 -0.17803754 0.14783962 -0.4138842 -0.2034405 0.19358283 -0.4143303
-0.42260635 0.05375961 -0.2803173 0.11138091 -0.14914185 -0.02912437 0.40379056 0.04005486
-0.11519759 0.05157304 -0.1082063 -0.039365552 0.20343256 0.24427445 -0.22918558 -0.0685155
0.067557715 -0.0871172 0.031172562 0.32386914 0.14127868 -0.088353 -0.18768145 0.283614
-0.00084131263 0.13098626 -0.07595434 -0.3535715 0.1499149 -0.2668907 0.018625582 0.21300395
0.011610511 0.18138085 -0.16634372 -0.0007709005 -0.28596845 -0.27425447 0.23075777 0.04167897
0.08222026 -0.006903486 -0.3149199 0.1934127 0.44124207 -0.042830456 -0.19525689 -0.111025915
-0.3052342 -0.088426575 -0.28382254 0.23940496 -0.52435255 -0.1736372 -0.40590787 0.1357219
-0.25070664 -0.0741335 0.078154445 0.32597232 -0.17341335 0.42044267 0.26613215 0.050338686
-0.2573494 0.29167056 -0.11542535 -0.17213722 -0.06811517 0.38037 0.29914305 -0.04124652
0.24594063 0.07720359 0.100398675 -0.064432815 -0.21745548 -0.09369791 0.23544127 -0.16062315
-0.13735902 -0.32245952 -0.022444652 0.27201143 0.2757427 -0.21980008 -0.24335209 -0.2632385
0.21501286 -0.005276371 -0.09877029 -0.12993774 -0.22756828 0.018536298 0.0023498326 -0.09092188
-0.1996605 0.120276466 0.064990714 -0.028765012 0.060008958 0.19412963 -0.21476176 0.043016583
0.105892874 0.008233728 -0.14441256 0.44043472 -0.29770297 -0.18645155 0.17529947 -0.05871292
-0.29981226 0.35569155 -0.26802352 -0.32754 -0.056392822 0.14057942 -0.20263967 0.17059885
-0.3628961 -0.12945452 -0.30481422 0.43158957 0.28533223 0.29037124 -0.3593687 0.23092014
0.086849466 -0.21694848 -0.28423762 -0.02011488 0.097290434 0.36718813 0.2942091 -0.19818793
00000000: 9da0 813c 2a1e dbb9 839b 283d 60bf bf3e
00000010: b181 8dbe 9746 0a3b ae0c 883e adbb 7bbd
00000020: 3c06 02be a25c 943c 854a b5be a5c7 a23d
00000030: 0312 7a3e 7e53 753e c40f 3fbd 314f 3b3e
00000040: dc10 b53e 5322 3dbe dc5c ccbd 94d3 82be
00000050: 9bab f0be 824a 7fbd 81a2 1fbe f034 aebe
00000060: 9fee fb3e 3774 81be 0040 393e 4649 1e3b
00000070: 700f 46be dc1b 97be 7820 813c 91f4 623e
00000080: 0db2 8bbe 8328 55be 2780 ffbd 63cb 3dbb
00000090: 151d fcbe b6ca c33c 7b30 cd3d ecbf 66be
000000a0: da4d a63e c751 b23d b746 24bd 0d67 da3d
000000b0: b988 893e 13f6 133e 527a 1cbd d4d6 1c3e
000000c0: cc60 03bf 4280 12be 7de8 b43e 37a4 4bbb
000000d0: 2039 96bd 2b50 843e ce70 a23e 1c67 b9bd
000000e0: b2c6 783e dfb6 a43e ff1f 583d 8d15 643e
000000f0: cf24 a6bd ebaa 98bc fc1b c93d d617 46be
00000100: 613d 863d 5477 63be 537a 59bd 2623 ebbd
00000110: a519 383e c10b 323d d997 413e adf8 1cbe
00000120: 726d b8bc 9634 743e c778 9fbe 34ff 103e
00000130: ac1a 9bbe 00bc bdbe 3585 2cbe be99 0dbd
00000140: 2e4e e3bd 1fda bf3d acf6 c23b 45b1 3d3e
00000150: bde2 db3c 2903 223d 0a22 693e 89a7 9e3e
00000160: b10a ca3c 257f 68be 9a82 a3bd f2d8 d3be
00000170: 8d16 48be a11f 22be da3c abbe ed33 753e
00000180: d62f c53e 2999 a4be 1a30 fabe 9c43 733e
00000190: 5801 d8be be70 343e 4c3f 5abe e177 1abe
000001a0: 65df d5bc 21b3 523e c24a ecbe fa20 bd3d
000001b0: 55ff 62bc 2b8e bb3a 0db1 afbd cee3 b13d
000001c0: c38b 08be 4174 0dbe 794f 36be 4563 173e
000001d0: a1e8 d3be b552 50be 943a 463e 1a23 d4be
000001e0: dc5f d8be 0933 5c3d c085 8fbe ad1b e43d
000001f0: a4b8 18be 3b96 eebc a3bd ce3e 9110 243d
00000200: b7ec ebbd 413e 533d 449b ddbd c63d 21bd
00000210: a050 503e 1523 7a3e a0af 6abe db51 8cbd
00000220: b35b 8a3d 816a b2bd 9a5d ff3c 2dd2 a53e
00000230: 5cab 103e 6bf2 b4bd 912f 40be db35 913e
00000240: 898b 5cba 4321 063e f38d 9bbd 5307 b5be
00000250: 4b83 193e e6a5 88be ad94 983c b51d 5a3e
00000260: 033a 3e3c e7bb 393e 0256 2abe 4216 4aba
00000270: 756a 92be 156b 8cbe c44b 6c3e 91b7 2a3d
00000280: 1863 a83d a336 e2bb 2e3d a1be fb0d 463e
00000290: 7bea e13e fd6e 2fbd 6cf1 47be 8e61 e3bd
000002a0: a847 9cbe fe18 b5bd 3051 91be 9326 753e
000002b0: f83b 06bf f3cd 31be 28d3 cfbe affa 0a3e
000002c0: 9f5c 80be 4ed3 97bd 700f a03d d8e5 a63e
000002d0: 4593 31be 4344 d73e 7942 883e f02f 4e3d
000002e0: 4dc3 83be d855 953e 2064 ecbd bd44 30be
000002f0: f77f 8bbd dbbf c23e 4729 993e 1cf2 28bd
00000300: dcd7 7b3e ea1c 9e3d d29d cd3d 5af5 83bd
00000310: a6ac 5ebe b1e4 bfbd 8417 713e 657a 24be
00000320: d8a7 0cbe 6a19 a5be d9dd b7bc 1545 8b3e
00000330: 262e 8d3e 4613 61be 4a31 79be 32c7 86be
00000340: 552c 5c3e 68e5 acbb 1448 cabd 660e 05be
00000350: a907 69be 6fd9 973c a6ff 193b 4035 babd
00000360: cd73 4cbe 8253 f63d da19 853d 9aa4 ebbc
00000370: f4cb 753d ebc9 463e 82ea 5bbe 2832 303d
00000380: 5dde d83d c2e6 063c e3e0 13be a980 e13e
00000390: 866c 98be 28ed 3ebe b481 333e f57c 70bd
000003a0: fe80 99be 341d b63e 613a 89be 53b3 a7be
000003b0: 29fc 66bd 0df4 0f3e c680 4fbe 77b1 2e3e
000003c0: 85cd b9be ba8f 04be 9c10 9cbe 4ff9 dc3e
000003d0: 1117 923e 8aab 943e 2dff b7be 5476 6c3e
000003e0: 22de b13d be27 5ebe 9887 91be f6c7 a4bc
000003f0: 3540 c73d 1500 bc3e 93a2 963e c7f1 4abe

495 f4 [48]
0.034680355 -0.045818765 0.30167094 0.58189034 0.047647245 0.116540544 0.24868688 -0.00039724883
-0.43729427 -0.027168002 -0.09151628 -0.574965 0.006315564 0.7251655 0.3021946 0.4449393
0.2097313 0.030809782 0.13012488 -0.042568967 0.34384593 0.12429529 -0.23162116 0.2837381
-0.5564099 -0.15847768 -0.17741127 0.1783391 -0.2692355 -0.12636866 0.08608072 0.49831238
-0.42577788 -0.051814426 -0.35407194 -0.6025 0.6077088 -0.24121515 -0.40582678 0.081725106
-0.46964556 0.17748916 0.114296414 0.2811903 0.5521195 -0.3852959 0.44883242 -0.15378475
00000000: fd0c 0e3d 75ac 3bbd 9d74 9a3e c4f6 143f
00000010: c229 433d cfac ee3d c6a7 7e3e d645 d0b9
00000020: 09e5 dfbe 6e8f debc e36c bbbd e830 13bf
00000030: caf2 ce3b 72a4 393f 40b9 9a3e 15cf e33e
00000040: cdc3 563e cc64 fc3c 753f 053e cc5c 2ebd
00000050: 930c b03e 878e fe3d 192e 6dbe 1f46 913e
00000060: e170 0ebf f947 22be 4dab 35be 869e 363e
00000070: 3cd9 89be c966 01be 174b b03d cd22 ff3e
00000080: 8fff d9be 5d3b 54bd eb48 b5be 713d 1abf
00000090: ce92 1b3f 1b01 77be 87c8 cfbe 7e5f a73d
000000a0: 6275 f0be b8bf 353e 3d14 ea3d 2df8 8f3e
000000b0: b457 0d3f 8145 c5be 5dcd e53e c079 1dbe

497 f4 [48, 48, 1, 1]
0.012790503 -0.00993692 0.010813445 -0.0241908 -0.0048869196 -0.026572619 0.0052758064 -0.021975514
0.0015320763 0.037330173 0.0041716266 -0.025284467 -0.010947994 0.01593904 -0.0032802324 -0.003139873
0.014359563 0.0109141935 -0.002522952 -0.02157189 0.0056854323 0.018521765 0.01739057 -0.015828917
0.016759409 -0.0031872976 -0.0023262997 -0.009579322 0.015277502 0.0017014487 -0.0033943697 0.012835883
0.0044889874 -0.02365231 -0.018107643 0.021942958 0.008186261 0.028083347 -0.023764651 0.0061562373
-0.020223623 0.00059430586 -0.009496866 0.012850519 -0.012349826 0.010080019 0.009578791 -0.023695605
-0.019356964 -0.0022380508 -0.020726692 -0.039411288 0.009059407 -0.019068649 -0.019433638 0.0122873625
-0.013767199 -0.027347492 0.021972764 0.0014992713 0.015118612 0.03071012 -0.0024997797 0.016583364
5.8115183e-05 0.0199762 -0.037286375 -0.009729775 -0.008903127 -0.0035266764 -0.010155666 -0.02813971
-0.010263932 -0.0117956195 0.0008599175 0.059195217 -0.0147049315 -0.009365445 0.034137506 -0.019689424
0.017305944 0.000731139 0.009852445 0.019015595 0.01258558 0.030992925 -0.024295928 -0.032059792
0.012972806 -0.014552713 0.03369754 -0.020116687 -0.054227296 -0.0021436606 -0.0068345033 -0.010775835
-0.0033723048 0.030715114 -0.011513487 0.03834776 -0.002414348 -0.05028892 0.008035934 0.01363663
-0.003078416 0.0059518474 -0.027015088 -0.0012435501 -0.004961106 -0.00977231 -0.019956782 0.03344357
0.041650638 0.027226297 0.012758534 -0.020947069 0.031242872 -0.026217856 0.0051550018 -0.024975052
-0.009646441 -0.0052522607 -0.008136985 -0.03119414 -0.0032651536 -0.028792111 0.014826831 0.044652715
-0.0130606955 0.013397955 0.021547364 -0.01910143 0.0043395534 0.010441666 -0.011048602 0.024912491
-0.060078703 -0.0013236301 0.0012470034 0.025033286 0.032872938 0.017477095 0.025453819 -0.041603297
-0.0034028892 -0.0016283081 -0.023610486 0.026540507 0.0035904392 -0.029274497 0.019113483 0.002370871
0.03197742 0.019302329 -0.0016393099 -0.00049637863 0.009498816 -0.02193076 0.019495403 -0.009385702
0.015135103 0.015494795 -0.01735037 -0.0430828 -0.00840413 -0.0034139922 0.06430546 -0.024317238
0.0016960973 -0.001065669 0.0058581065 -0.003506794 -0.029315392 -0.031498175 0.010232093 -0.021108443
-0.018917842 -3.469397e-05 0.00697503 0.03644617 0.008526433 0.024064906 -0.027474713 0.022208981
0.008079871 0.0068262173 -0.01502794 -0.018807473 0.0025242504 -0.008729336 0.016711332 -0.0037253255
0.011357346 0.015821975 0.0029940302 -0.0007747719 0.017577616 -0.011095995 -0.0023490062 -0.019920161
0.021286499 -0.009049484 0.0150062125 0.037075605 -0.00948762 -0.0031309582 0.005391044 0.009370774
-0.025939163 0.009465787 -0.027973855 0.019641401 -0.0022592293 -0.0053044874 -0.015513134 0.009625798
0.017232506 -0.0023727715 -0.0034330832 0.004452056 0.004936617 0.0006936105 0.0072221565 -0.003185268
-0.006437602 -0.012430314 0.010799982 -0.0009997564 0.0013874765 -0.004142332 0.0068828324 -0.015718183
-0.0029866803 -0.027365444 0.0056373584 -0.01650364 -0.0005029988 0.028536975 -0.0128508 0.027467763
-0.021564841 -0.032602154 -0.02381973 -0.020147484 0.032076165 -0.018345986 -0.024069807 -0.0065445863
0.019673564 0.010198525 0.013995029 -0.0016953402 0.0025217277 -0.011608192 0.010660361 0.0078651635
00000000: 428f 513c 77ce 22bc e02a 313c c92b c6bc
00000010: 7422 a0bb d2ae d9bc ace0 ac3b fe05 b4bc
00000020: f3cf c83a 86e7 183d 24b2 883b 5f21 cfbc
00000030: 375f 33bc 9792 823c 2bf9 56bb 54c6 4dbb
00000040: 5f44 6b3c 72d1 323c 1c58 25bb 88b7 b0bc
00000050: dd4c ba3b f5ba 973c ab76 8e3c a5ab 81bc
00000060: 074b 893c fbe1 50bb d574 18bb 97f2 1cbc
00000070: 7d4e 7a3c 2503 df3a 1374 5ebb 984d 523c
00000080: 5b18 933b 7dc2 c1bc 7b56 94bc b8c1 b33c
00000090: ab1f 063c 0c0f e63c 16ae c2bc 43ba c93b
000000a0: 03ac a5bc 31cb 1b3a be98 1bbc fc8a 523c
000000b0: ed56 4abc aa26 253c 5df0 1c3c 491d c2bc
000000c0: 7f92 9ebc 43ac 12bb 06cb a9bc bb6d 21bd
000000d0: e86d 143c db35 9cbc 4b33 9fbc ef50 493c
000000e0: d18f 61bc d907 e0bc 3a00 b43c 3283 c43a
000000f0: 0eb4 773c ca93 fb3c 58d3 23bb d6d9 873c
00000100: b4c0 7338 21a5 a33c 99b9 18bd a269 1fbc
00000110: 6cde 11bc d01f 67bb f363 26bc 4085 e6bc
00000120: 0d2a 28bc 6a42 41bc 166c 613a af76 723d
00000130: f4ec 70bc 8671 19bc c5d3 0b3d b74b a1bc
00000140: 32c5 8d3c e8a9 3f3a 266c 213c 98c6 9b3c
00000150: c033 4e3c e0e4 fd3c 4108 c7bc 2151 03bd
00000160: e48b 543c 816e 6ebc 6f06 0a3d c0cb a4bc
00000170: 711d 5ebd a87c 0cbb f8f3 dfbb 218d 30bc
00000180: e301 5dbb 439e fb3c 11a3 3cbc 8a12 1d3d
00000190: 0a3a 1ebb c1fb 4dbd 26a9 033c 2c6c 5f3c
000001a0: 40bf 49bb b707 c33b bf4e ddbc 9efe a2ba
000001b0: c690 a2bb 0a1c 20bc 687c a3bc 20fc 083d
000001c0: dc99 2a3d af09 df3c 2c09 513c 3099 abbc
000001d0: 0df1 ff3c d4c6 d6bc 4aeb a83b 7b98 ccbc
000001e0: 1b0c 1ebc 281b acbb fd50 05bc da8a ffbc
000001f0: 30fc 55bb 6fdd ebbc 3dec 723c c4e5 363d
00000200: 87fc 55bc 1983 5b3c 1984 b03c 9a7a 9cbc
00000210: d032 8e3b 8513 2b3c 3205 35bc 4815 cc3c
00000220: 1615 76bd a87d adba 7e72 a33a 9b12 cd3c
00000230: c6a5 063d 202c 8f3c 8784 d03c 3868 2abd
00000240: 0203 5fbb f46c d5ba c76a c1bc 7a6b d93c
00000250: 934d 6b3b 12d1 efbc e193 9c3c 9d60 1b3b
00000260: c1fa 023d eb1f 9e3c 1dde d6ba 681f 02ba
00000270: eca0 1b3c 23a8 b3bc d3b4 9f3c 7dc6 19bc
00000280: 39f9 773c e1dd 7d3c 5d22 8ebc 9777 30bd
00000290: 7ab1 09bc 49bd 5fbb 95b2 833d f234 c7bc
000002a0: 954f de3a ebad 8bba 5cf5 bf3b 3ed2 65bb
000002b0: d526 f0bc 3b04 01bd 82a4 273c 9deb acbc
000002c0: 97f9 9abc 5e84 11b8 cb8e e43b 9448 153d
000002d0: 74b2 0b3c c423 c53c a612 e1bc 9cef b53c
000002e0: 6f61 043c 76ae df3b c037 76bc 2112 9abc
000002f0: e56d 253b 7d05 0fbc 34e6 883c 9724 74bb
00000300: 2914 3a3c 169d 813c 7e37 443b 101a 4bba
00000310: effe 8f3c facb 35bc c9f1 19bb 9b2f a3bc
00000320: 0661 ae3c 4944 14bc 9edc 753c 97dc 173d
00000330: f671 1bbc c330 4dbb 5ba7 b03b e087 193c
00000340: 5e7e d4bc 6316 1b3c 6d29 e5bc 01e7 a03c
00000350: 940f 14bb 44d1 adbb cd2a 7ebc 86b5 1d3c
00000360: 2f2b 8d3c 8080 1bbb 94fd 60bb 8de2 913b
00000370: 58c3 a13b 6ad3 353a d7a7 ec3b eebf 50bb
00000380: 85f2 d2bb 84a8 4bbc 68f2 303c 420a 83ba
00000390: fcdb b53a 66bc 87bb 6289 e13b 6bc3 80bc
000003a0: 2ebc 43bb 7f2d e0bc 97b9 b83b a432 87bc
000003b0: aedb 03ba 60c6 e93c 298c 52bc 1304 e13c
000003c0: c0a8 b0bc d689 05bd 9821 c3bc 560c a5bc
000003d0: 4c62 033d 524a 96bc 0b2e c5bc f873 d6bb
000003e0: 742a a13c b717 273c 684b 653c 2d36 deba
000003f0: 9243 253b 4930 3ebc cba8 2e3c e3dc 003c

498 f4 [48]
0.059178818 0.053162757 0.060217846 0.01368067 -0.0078102243 0.06997587 -0.020632075 0.085669935
-0.010598572 0.03903317 0.051851902 0.0106435865 0.03315047 0.007315509 0.055466574 0.048367817
0.021743579 -0.008251209 0.04068061 0.12597555 0.0786842 0.015017085 0.14892486 0.004849896
0.054362 -0.0067322697 0.0007379478 -0.02294735 0.03535989 0.037953857 0.048229575 0.058723822
-0.02859076 0.033490546 0.013111562 0.0057470356 -0.02967201 -0.013294425 -0.0008603603 0.10100164
-0.009314477 0.06267911 0.0024910953 0.12507421 -0.03119856 0.0023988194 0.013366181 0.035088476
00000000: 7d65 723d 31c1 593d fda6 763d e424 603c
00000010: e9ec ffbb 824f 8f3d 9904 a9bc b873 af3d
00000020: a2a5 2dbc 3fe1 1f3d a962 543d 7062 2e3c
00000030: cac8 073d f0b6 ef3b eb30 633d 551d 463d
00000040: 971f b23c 1430 07bc b6a0 263d bcff 003e
00000050: 2f25 a13d 380a 763c c27f 183e e0eb 9e3b
00000060: b0aa 5e3d 5f9a dcbb d772 413a 15fc bbbc
00000070: 88d5 103d 8175 1b3d 608c 453d 6488 703d
00000080: 2b37 eabc 622d 093d e0d1 563c a151 bc3b
00000090: b712 f3bc dcd0 59bc cd89 61ba f3d9 ce3d
000000a0: c09b 18bc e85d 803d a541 233b 7413 003e
000000b0: 1f94 ffbc 8335 1d3b d4fd 5a3c efb8 0f3d
